# parameters
nc: 1  # number of classes
depth_multiple: 0.33  # model depth multiple
width_multiple: 0.50  # layer channel multiple

# anchors
anchors:
  - [12,14, 18,17, 15,22]  #1/4  img_size=640
  - [24,15, 20,26, 25,22]  #1/8
  - [34,20, 24,33, 30,27]   #1/16
  - [32,38, 41,29, 45,40]  #1/32

# YOLOv5 backbone
backbone:
  # [from, number, module, args]
  [[-1, 1, Focus, [64, 3]],  # 0-P1/2
   [-1, 1, Conv, [128, 3, 2]],  # 1-P2/4
   [-1, 3, C3, [128]],
   [-1, 1, Conv, [256, 3, 2]],  # 3-P3/8
   [-1, 9, C3, [256]],
   [-1, 1, Conv, [512, 3, 2]],  # 5-P4/16
   [-1, 9, C3, [512]],                           #6
   [-1, 1, Conv, [1024, 3, 2]],  # 7-P5/32
   [-1, 1, HSPP, [1024]],
   [-1, 1, CA, [1024]],
   [-1, 3, C3, [1024, False]],  # 10
  ]

# YOLOv5 head
head:
  [[-1, 1, Conv, [512, 1, 1]],   # P11
   [-1, 1, nn.Upsample, [None, 2, 'nearest']], #256*40*40
   [[-1, 6], 1, Concat, [1]],  # cat backbone P4
   [-1, 3, C3, [512, False]],  # 1/16  P14

   [-1, 1, Conv, [256, 1, 1]],
   [-1, 1, nn.Upsample, [None, 2, 'nearest']],     #128*80*80
   [[-1, 4], 1, Concat, [1]],  # cat backbone P3
   [-1, 3, C3, [256, False]],  # 18 (P3/8-small)  P18

   [-1, 1, Conv, [256, 1, 1]],
   [-1, 1, nn.Upsample, [None, 2, 'nearest']],     #128*160*160
   [[-1, 2], 1, Concat, [1]],  # cat backbone P3
   [-1, 3, C3, [256, False]],  # 1/4 #128*160*160    P22

   [-1, 1, Conv, [256, 3, 2]],  #128*80*80
   [[-1, 18, 4],  1, Concat, [1]],
   [-1, 3, C3, [256, False]],      #1/8 128*80*80     P25

   [-1, 1, Conv, [512, 3, 2]],  #256*40*40
   [[-1, 14, 6],   1, Concat, [1]],
   [-1, 3, C3, [512, False]],      #1/16 256*40*40    P28

   [-1, 1, Conv, [1024, 3, 2]],  #512*20*20
   [[-1, 11], 1, Concat, [1]],
   [-1, 3, C3, [1024, False]],     #1/32 512*20*20    P31

   [[22, 25, 28, 31], 1, Detect, [nc, anchors]],
  ]
